best_global_model.pth (torch, 58061 bytes, 6 tensors)

layer1.weight f4 [128, 38]
00000000: 0ed6 243e 4276 14bd 2a0d df3d e460 1fbc
00000010: d201 f63e 2bfa 353e 282d 6bbc de63 b23a
00000020: 2342 e93d 625b 743d 5e7c cd3e 049c 22be
00000030: dc32 c0bd bfaa e4bc 3c77 37bb 889b 333c
00000040: b0ca 0e3f 5113 973c d265 adbb 3d10 5cbc
00000050: cd41 00bd 7cfe 20bd 0d09 9c3d 662b 19bc
00000060: 4327 423c 8a03 77bc 62ff 1ebd 8a5b 583d
00000070: 3c96 b5bd 9c11 a2bb 7302 403d 45f5 493c
00000080: c13d 38bd 52b4 5fbc c922 28be c035 dc3c
00000090: 30ea 18bc 635b 81bc 618a c1bc 565d ba3d
000000a0: 115e cbbd 7b0d 22be d078 4ebb 9455 afbd
000000b0: bb3b 003e 1c30 9c3c 4f5f bb3d ec98 1abe
000000c0: 7133 083f 15d4 59be 1390 813c 199e 3b3d
000000d0: fe1f 4d3e 7cba eabd 4c23 d93d b7fa 24bd
000000e0: edb7 22be 4d0b a1bd d949 4dbd 9439 463d
000000f0: 29fe c23b ecd2 5d3e ec93 06be dd88 3bbc
00000100: 7cb7 55bd 62ed 1d3d 21eb 663e a179 ce3d
00000110: 17d2 323e 6e08 dfbd 27b1 3bbe 8fb6 b2bd
00000120: 80dd 8f3d 8652 d3bd 512d 7cbc 6fbe 82bc
00000130: 4d11 463d e515 6e3d f89d 8d3d 9139 6a3d
00000140: 2b0b 263e 935b 063d e5d6 66bd 506a 6ebc
00000150: b840 a73e 2212 033c 01d6 60bd 700c a6bd
00000160: 50cf 08bd 69de c2bb ec8e a9be 7d08 e0bc
00000170: d874 003f 52c8 d83d f291 16be 0a2f 763d
00000180: 5e47 89bd 2aab c33c 1f02 0fbe b287 b73d
00000190: 1b91 87bd 2405 9cbc 8d5d 933d 74cc 523b
000001a0: 337f 573e 3cba 863a 4d63 013e 6c42 d8bb
000001b0: 4d38 553d 1359 dfbb be08 8bbe 9bc0 5d3d
000001c0: f41e 07ba a928 19bd 46dd 1fbe edec ba3d
000001d0: deaf 38be be6b 313e ac6a 54be 2fbf d9bd
000001e0: 4451 ecbd e739 c1bb f20e 383e c32a 81bd
000001f0: fbce 40bd 521c 243d ac44 71bd cf52 48bd
00000200: 7b3b 063e 072d f73c a786 9cbe bb64 0c3e
00000210: 8520 523e 4fd5 5e3d 8652 a03e 332b efbd
00000220: 4179 a53e 8a9c c3bd 6b56 6d3e f963 c2bd
00000230: 96db 02bd 4dfc 413d 0977 0ebd 3012 c1bc
00000240: 7d74 813d 3ba8 033e c063 833d dbce 6b3c
00000250: 9ff3 abbe 2727 4abe 60ab 34bd cf9d 0bbd
00000260: 3b68 4cbc 7344 cb3c 64d0 b2ba 34f8 b2bd
00000270: 6fd1 8b3d 08a4 043e 71a6 6d3d b31c 693d
00000280: fe0a c1bc 727f 333d 49b9 d53c b5c8 f2bc
00000290: 14c3 503d 4d42 14bd a22e c63d e983 57bc
000002a0: 3925 75be 230e c23c fb7b 283e 62a4 2c3c
000002b0: 1dde 003d 5417 c8bd fb9b 773e 7572 08be
000002c0: 6742 453d cc19 163d 6e23 133e b7d6 b43c
000002d0: e342 3a3f 8b87 c23d dc74 603d 7246 383c
000002e0: e5a1 c5bd 9e17 30bc b481 1f3e 6f8d 1abd
000002f0: 10cf 5abb 84ff 9ebc 70b8 a63d 8c32 acbc
00000300: fe70 3f3e 5693 d43d 9343 03bf 7c6e 44be
00000310: 7ac7 82bd 3c58 c8bb 88ff 513d 188b cabc
00000320: b876 d23e acab 47bd 1a78 2d3d f899 ab3a
00000330: 1637 7c3e 3343 85bd db1b 583d 7492 b43d
00000340: ce67 8abd 1bee 1dbc 34b9 4bbc c8bc 24bd
00000350: a08e 09be 695e 9b3d ba34 ebbd d63a 8f3d
00000360: 337a b63d 20de 953d 04a7 843e 385e 303d
00000370: f67a 5a3c ddb3 62bc 960e ff3c 5ac6 e73b
00000380: 69c0 cabc b44e bc3d e251 e9bc 6e0f 62bc
00000390: 1bf1 65bb fda1 d03d 7acc 96bd 107b 6a3d
000003a0: 7fac 773e 21d2 133e 8852 133e de84 493d
000003b0: 61f3 063e 46bf df3b 5dd3 e93e 684f 813c
000003c0: 9f82 553c 816e abbc 4297 7ebc eab4 39bd
000003d0: 9517 0abe e014 35bc a62e 1c3d 6595 f8ba
000003e0: 27db 75bd 5e30 0cbd 3018 553e 5c7a 46be
000003f0: a9c9 b63d d2f7 42bd b6ae 563d 6e97 fc3c
0.1609728 -0.036245592 0.10891183 -0.00972769 0.48048264 0.17771213 -0.014354028 0.0013610085
0.11389568 0.059657462 0.40133947 -0.15879828 -0.09384701 -0.02791345 -0.0027994653 0.0109623745
0.55778027 0.018441828 -0.005291679 -0.013431606 -0.031312753 -0.039305195 0.07618914 -0.009348726
0.011850181 -0.015076527 -0.03881777 0.052821673 -0.088665456 -0.004945947 0.046877336 0.012326543
-0.044980768 -0.013653832 -0.1641952 0.026881099 -0.009333178 -0.015790647 -0.023625555 0.09099834
-0.09930051 -0.15825455 -0.0031505115 -0.085612446 0.12522785 0.01906591 0.09149038 -0.15097398
0.53203493 -0.21272309 0.01581577 0.04580507 0.20031735 -0.1146135 0.106024355 -0.040278163
-0.15890475 -0.078634836 -0.050119255 0.048394755 0.0059507084 0.21662492 -0.13142365 -0.011446205
-0.052176937 0.038556464 0.22550632 0.100817926 0.17462955 -0.1089028 -0.18329297 -0.087262265
0.0702467 -0.103184745 -0.015391664 -0.015959946 0.048356343 0.05812635 0.06914896 0.057183806
0.16215198 0.032802176 -0.056357283 -0.014551714 0.32666564 0.007999929 -0.05489159 -0.08107841
-0.033400834 -0.0059469235 -0.33116853 -0.027347798 0.5017829 0.10585083 -0.14704111 0.060103454
-0.06703065 0.023885328 -0.13965653 0.08961429 -0.066194735 -0.01904542 0.07195578 0.003216532
0.21044616 0.0010278891 0.12635536 -0.006599715 0.052055646 -0.0068160384 -0.27155107 0.05413876
-0.00051544537 -0.037392292 -0.15611753 0.09127221 -0.18035838 0.17326257 -0.20743817 -0.106321685
-0.11538938 -0.005896795 0.17974451 -0.06306984 -0.047072392 0.04006607 -0.05890338 -0.048907097
0.13108627 0.030172838 -0.30571482 0.137103 0.20520218 0.054402646 0.3131296 -0.116781615
0.32319072 -0.09551342 0.23177497 -0.094917245 -0.031947695 0.047359753 -0.03478149 -0.023568243
0.063210465 0.12857144 0.0641551 0.01439258 -0.33584306 -0.19741498 -0.04410875 -0.034086045
-0.012476022 0.024812913 -0.0013642428 -0.08738747 0.06827056 0.12953198 0.05802006 0.056912135
-0.023564812 0.043822713 0.026089327 -0.02963672 0.05096729 -0.03619604 0.09676863 -0.013154008
-0.2393998 0.023688382 0.16453545 0.010537239 0.031461824 -0.097700745 0.24180596 -0.13324912
0.04815903 0.036645696 0.14368984 0.02207504 0.7275831 0.09498509 0.054798946 0.011247264
-0.096500196 -0.010747818 0.15576822 -0.037732538 -0.003338758 -0.019408949 0.081406474 -0.021020196
0.18695447 0.103796646 -0.51274985 -0.19182771 -0.063857034 -0.006114034 0.051269084 -0.024724528
0.411062 -0.048747703 0.042350866 0.0013092151 0.24630389 -0.06506958 0.05276094 0.08816996
-0.067580804 -0.009639288 -0.012434293 -0.0402191 -0.13433313 0.07586367 -0.11484666 0.06993644
0.089100264 0.073177576 0.25908673 0.043058604 0.01333498 -0.013836828 0.031134885 0.007073206
-0.024749951 0.09194699 -0.028481428 -0.013797624 -0.0035086337 0.10187147 -0.073632196 0.057246268
0.24186896 0.14435627 0.14386952 0.049198978 0.13178779 0.0068282215 0.4566907 0.015784934
0.013031631 -0.020926716 -0.015538992 -0.04533855 -0.13485558 -0.01105234 0.038130425 -0.0018965421
-0.060023453 -0.034225814 0.20810008 -0.19382614 0.08925182 -0.04759962 0.05241271 0.030833926

layer1.bias f4 [128]
00000000: df3c 08bf 8d32 afbe 815e dcbd e6af d0be
00000010: f481 0dbf 1903 ddbe 15b3 29bf 53ba 15bf
00000020: 3be1 f1be cc06 ff3c 11c4 f0be 4e1a 8ebe
00000030: be07 bdbe 807c c8bd 4506 96be e2fa d7bd
00000040: 87de 6bbe 9b4f e6be bed8 1cbf 6b13 b1be
00000050: bfba 20be a26d 75be f18c 07bf be77 eebe
00000060: c032 f7be 8fa4 d6be 7f0c 18bf f600 d9be
00000070: 7678 eabe 80a8 16be 3427 a63d 1b14 edbe
00000080: 2d0d 813d 3c41 5fbd 56d3 a1be bd19 d9be
00000090: 67fa e6be dc25 bebd b6ab 6bbe 894c fcbe
000000a0: 8356 bdbe 85e7 14bf c05c c0be e08e f3be
000000b0: 18ea f9be a305 c3be cbfb ddbe 6806 14be
000000c0: 7910 1bbe b088 12be 4755 04bf 8447 a7be
000000d0: ebc2 2dbe 572a 17be 6219 dfbe 852b 71bd
000000e0: 2138 c9be 2222 113e d15d 06bf 46cf 11bf
000000f0: 49f1 0f3e ac32 b8be d2bb dbbe 532f c4be
00000100: 5be6 00bf eef8 50be 90dc 93bd 97b7 a5be
00000110: 68c8 fdbc 6715 7a3c e3d6 febe fe1f 13bf
00000120: 5002 0fbf 897d 5dbe 7b28 01bf 7cb3 82be
00000130: 49b0 cbbe 6438 b2be 4b9a 5dbe ddc4 6dbc
00000140: 80c2 f8bd 1582 07bf 4204 52be f2c7 a4be
00000150: b26a 7abe f4bd 1abe 0651 c2be 0839 ffbd
00000160: d432 14bf f7e0 7dbe 733e dbbe b6a1 b5be
00000170: d353 ddbe b593 e6be 29cf 04bf b413 96be
00000180: 1d8c f1be 6258 ebbc f0f6 a7be 91c5 50be
00000190: 5e1a 66be 5529 72be ec91 3fbe b4b3 cdbe
000001a0: 83b7 0ebf e035 fbbd 6389 f0be bb31 cebe
000001b0: d6fa c9bd 989c a2be fe37 01bf 18e2 44bd
000001c0: 89ab 7dbe 26de 94bd 7e84 06bf b6d5 20bf
000001d0: 405c bdbe e3a5 96bd 2e27 f6be f611 16be
000001e0: d8c2 96be c4fe a9be 3f11 debe 4761 d4be
000001f0: 1a9e e7be a353 aebe 1f11 afbe e9fe c8be
-0.5321788 -0.34218255 -0.10760213 -0.407592 -0.5527642 -0.43166426 -0.6628888 -0.58487433
-0.4724215 0.03113117 -0.47024587 -0.27754444 -0.3691997 -0.097893715 -0.29301658 -0.10545899
-0.23034106 -0.4498261 -0.6126822 -0.34585127 -0.15696238 -0.23967603 -0.52949435 -0.4657573
-0.48280907 -0.41922423 -0.5939407 -0.42383546 -0.4579503 -0.14712715 0.08112946 -0.46304402
0.06301341 -0.05450557 -0.3160655 -0.4240245 -0.45112917 -0.09284565 -0.23014721 -0.49277142
-0.36980066 -0.5816577 -0.37570763 -0.47569942 -0.48811412 -0.38090238 -0.43356165 -0.14455569
-0.15143003 -0.14309955 -0.5169262 -0.3267175 -0.16968887 -0.14762245 -0.43574053 -0.058879394
-0.39300635 0.14173177 -0.524869 -0.569569 0.14056887 -0.3597616 -0.42916733 -0.38317356
-0.50351495 -0.20407459 -0.07219803 -0.3236663 -0.03097935 0.015263892 -0.4977332 -0.5747069
-0.55862904 -0.21629919 -0.50452393 -0.2552756 -0.39782932 -0.34808648 -0.2164089 -0.014512268
-0.12146473 -0.52932864 -0.20509437 -0.32183796 -0.24454764 -0.15111524 -0.3795244 -0.1246205
-0.5789006 -0.24792849 -0.42821082 -0.35474938 -0.43228015 -0.45034567 -0.518786 -0.29311907
-0.4717721 -0.028728668 -0.32805586 -0.20387866 -0.22470996 -0.2364858 -0.18708009 -0.40176165
-0.55748767 -0.12266135 -0.46979818 -0.40272316 -0.09862296 -0.31760097 -0.5047606 -0.048067182
-0.24772467 -0.07268934 -0.5254592 -0.62826097 -0.36984444 -0.07355859 -0.48076767 -0.14655289
-0.2944553 -0.33202183 -0.43372533 -0.41480467 -0.4523781 -0.34048185 -0.3419275 -0.3925698

layer2.weight f4 [64, 128]
00000000: 6c7f 983d 8f45 593e 0ce6 bc3a abbe 283e
00000010: a89f 823e 1a99 02be 53de a33d ee90 90bc
00000020: e7c5 a43d 3f5e cd3d 9ddc 4d3e 7719 a3bd
00000030: bce2 00bd 38cb 053e 703f 58bd 8073 d63d
00000040: 1019 0ebe 26a3 efbd dc76 a13e a3ad 113e
00000050: 9be0 223e 155b d8bd c4f7 ed3d defd 2a3e
00000060: 7fa3 7b3e cc84 b93d 944d 513e 79ef 1d3e
00000070: 44a5 e93d 68be 943d 3158 973c 1f85 e9bd
00000080: 471d 13bd 939f b63d f1c1 15bb 8e34 85be
00000090: c6c0 2f3e 3386 1a3d e7c3 143e 4fbd 063e
000000a0: 6298 d03d a140 81bd 6c92 9fbe fae9 c2bc
000000b0: 0a08 ea3d 0457 f33c ad41 af3e f5c8 0bbd
000000c0: 58cf 8d3b 0505 9bbd 0206 813e fd81 6ebe
000000d0: 130c 7abe 5b07 a13c bd3f f3bd 9307 363e
000000e0: 6622 143e 2a23 90bc 6e7f 5a3e e37a 9f3d
000000f0: ef59 f03c f169 493e 84de 31be 82ee b53d
00000100: 94d2 413e 1cfb d9bd 8f61 cabd f4df 24bd
00000110: 9234 1e3d c3ce d3bd 7ce6 97bd 6b60 17be
00000120: 5ac9 06be 399f 01be aa74 f83d 3889 373d
00000130: e184 c2bd 3f07 70bd 07d0 443e d25b c43d
00000140: 197c 9ebd 7bda e4bb a960 983c cb92 453e
00000150: b80b bc3d 93c6 06be e2de 44bd 4109 d93d
00000160: 67a8 ae3e f821 df3c 9628 d0bc bd20 153d
00000170: 6adc 2bbe 06fb 97bd 7213 4b3c 0ace 66bd
00000180: 825f b0bc bc6d 82bc cdbf 903c e764 94be
00000190: 15d5 57bd e22d 3e3d c295 943c 536b 9d3d
000001a0: c895 773e 86a8 a33d c409 b93d cd1d 843a
000001b0: ef27 183d fc35 1d3c 8a64 e3bb 9e93 6bbd
000001c0: 3619 e03d d31d 20bd e539 973e 94cc 0e3e
000001d0: dbf1 00bd d451 a6bd d242 743e 52ed 6fbd
000001e0: d5b5 76bd 42a2 71bd 15c2 98bc 399b 363e
000001f0: 7f4a b7bc 57d5 9dbd c048 86be 9471 89bc
00000200: 3f2a 35be 5760 34be 161b f6bd c22e e83d
00000210: d45e 14be a6f8 34be 7e54 643d 4cf6 9abe
00000220: f381 f4bb 641a 1c3e 0868 b5be 275e 1abe
00000230: 228c 64be 6968 a53d 65c4 1b3e f185 f53d
00000240: 08d9 6ab9 a922 77be ca93 51be ba22 d43c
00000250: 483f ec3d 31a0 b1bc c1ae b6bd 1d8d 47bd
00000260: 25eb 44be 4289 adbe a4d6 61bc 41a1 603d
00000270: 1be0 79bd 5247 6abd 816a 4a3e 7353 8e3d
00000280: 2b2c 253e 5458 5c3d 2808 efbe 987b ddbc
00000290: 5d8c 953c 2834 eb3c 587e 413b d651 14be
000002a0: 64c6 563e e9bf 0e3d 3620 04bc f8d5 9bbe
000002b0: 920d 2cbe 12a7 803a dbf1 5fbc 4465 c93d
000002c0: b03f 26be 9b91 22bc f9a4 43be f148 a6bc
000002d0: 4b83 1fbc 9f5b c63d 1e98 3b3e 4b8c 963d
000002e0: e8bb 72bc 9560 fd3d e017 f0bd f2b9 7abe
000002f0: e609 313e 9bfb c7be 2332 69be 17b0 4ebe
00000300: 5ade 753c 92a2 313e 2ba7 093e cb2c eabc
00000310: 99e6 233e cd4b 68bd ad85 c43d 48f7 513d
00000320: 0a0d 57be 0760 d9be fff0 e4bc c88c c53a
00000330: 9c4f e1bd df3c 15be f11b bf3d e6ed 043d
00000340: 3a82 3abd 0d52 86be ccc4 b13c 105b 73be
00000350: 7a43 6f3d 8f88 dbbd 2121 66be 92cd 153e
00000360: 8cd4 3ebd e4e5 0ebf 6f19 0cbf edda c03c
00000370: 541e 18bd 81ac 6ebe 9630 b0be 9742 bdbe
00000380: e90a 12be 6076 973d 8dd0 13bc 742b bfbc
00000390: 74b1 fa39 4e88 153d ee3e 773c 7dce e3bd
000003a0: cf8a 98bd c2e4 5cbe 48c1 1ebe 0b4b c13d
000003b0: c1f9 c53d c941 b4bd 4c52 87be 73c3 c43d
000003c0: cada 07bd 9825 f6bc 4aaa 0fbe 6d99 8bbe
000003d0: a603 cabe 96f9 383d fad4 3c3c 4a06 403e
000003e0: 8a3e eebe 5e23 47be adba d53d cfe3 95bd
000003f0: b1ee 14be 96fb 27bd 1b77 d7bc 5298 9ebe
0.07446179 0.21217941 0.0014411821 0.16478984 0.25512433 -0.12753716 0.08001389 -0.017647233
0.080455594 0.10027742 0.20103689 -0.079638414 -0.03146623 0.13065803 -0.052794874 0.104712486
-0.13876748 -0.1170104 0.31535995 0.14226393 0.15905993 -0.105642475 0.11619523 0.16698405
0.24574088 0.09058532 0.2043975 0.15423383 0.11408475 0.072628796 0.01847467 -0.11402344
-0.035916593 0.08917155 -0.0022851194 -0.2601666 0.17163381 0.03772564 0.14527856 0.13158153
0.10185315 -0.06311155 -0.311664 -0.02379321 0.114273146 0.029704578 0.34229794 -0.034127194
0.004327696 -0.07569317 0.25199896 -0.23291774 -0.24418668 0.019656828 -0.118773915 0.17776327
0.14466247 -0.017594893 0.21337673 0.07787111 0.029339759 0.1966932 -0.17370039 0.088833824
0.18927985 -0.106435984 -0.09881889 -0.04025264 0.038624354 -0.10342171 -0.07417008 -0.14782874
-0.13162747 -0.12658395 0.12131627 0.044808596 -0.09498001 -0.05860066 0.19219981 0.09587826
-0.077385135 -0.0069840527 0.018600779 0.19294278 0.09181923 -0.13161688 -0.04806412 0.10597468
0.34112856 0.027237877 -0.025409978 0.036408175 -0.167833 -0.07420926 0.012394773 -0.056348838
-0.021529917 -0.015921466 0.017669583 -0.28983232 -0.052693445 0.046430476 0.018137816 0.07686486
0.24178231 0.07991128 0.09035066 0.0010079682 0.03714746 0.00959539 -0.0069394754 -0.057513826
0.109423086 -0.039090943 0.29536358 0.13945228 -0.03148065 -0.08121076 0.23853615 -0.058575936
-0.060232002 -0.05899263 -0.018647233 0.1783265 -0.02237439 -0.07706707 -0.2622738 -0.016777791
-0.17691897 -0.17614876 -0.12016885 0.11337043 -0.14489299 -0.17672977 0.05574464 -0.30266035
-0.00746178 0.15244442 -0.35430932 -0.15074979 -0.22319081 0.08076555 0.15211637 0.11988438
-0.0002239683 -0.24134316 -0.20466533 0.025895465 0.115355074 -0.02168283 -0.089200504 -0.04871856
-0.19230326 -0.33893782 -0.0137840845 0.054841284 -0.06100474 -0.057196923 0.1976719 0.069495104
0.1613013 0.053795174 -0.4668591 -0.027036473 0.018255407 0.028711393 0.002952477 -0.14484343
0.20974118 0.03485099 -0.00806432 -0.30436683 -0.16802052 0.0009815416 -0.013668503 0.09833768
-0.16235232 -0.00992241 -0.19105901 -0.020298453 -0.0097358925 0.09685444 0.18319747 0.073509775
-0.014815308 0.12371937 -0.11723304 -0.24484995 0.17288932 -0.39059147 -0.22773032 -0.2018436
0.015006626 0.17347172 0.13442676 -0.028585812 0.16005935 -0.056712914 0.09595809 0.051261216
-0.21001068 -0.42456076 -0.027946947 0.0015071863 -0.110015124 -0.14574002 0.09331501 0.03245344
-0.04553435 -0.26234475 0.021700285 -0.23765206 0.05841396 -0.10719406 -0.22473575 0.146292
-0.04658942 -0.55819535 -0.5472631 0.023541892 -0.0371383 -0.23307993 -0.34412068 -0.36964867
-0.14261974 0.07395625 -0.00902189 -0.02333615 0.0004781593 0.036506943 0.015090687 -0.11123369
-0.07448351 -0.21571639 -0.15503418 0.094381414 0.096667774 -0.0880161 -0.26429975 0.096075915
-0.033167638 -0.030047223 -0.14029804 -0.27265492 -0.3945591 0.0451599 0.011525387 0.18752399
-0.4653209 -0.19447085 0.10435996 -0.07318842 -0.14544179 -0.041011415 -0.026301911 -0.30975586

layer2.bias f4 [64]
00000000: b24d 65bd 2cbc c33e 9cd3 ac3e b845 9b3e
00000010: 9aad 283b 469d 8e3e 867d af3e c2b7 d43e
00000020: e317 733e 273a 303d 5689 18be 22b4 4f3d
00000030: 56d9 953e 2efc c43e ba23 b1bd c88a 353f
00000040: a4cb 36be 92ec c03e 749f bd3e 79e0 ae3e
00000050: 59f5 c73e 8af7 26be 9f37 f83e d4bf 22be
00000060: 6976 8a3d 4bff 3bbd b649 863e e31d 823d
00000070: 6eaa 323f 15c2 c13e 74b1 8c3e 2f08 a23e
00000080: 08e9 17be e67d eb3e 0ea9 c13e 7094 9e3e
00000090: 352a 05bd 8701 7f3e 979d 9a3e b44b cc3e
000000a0: 092f 8f3e 983b ce3e 94de ab3e c9fa 13be
000000b0: 878f 863e 268a 9e3e 5e04 45be c5ac 513e
000000c0: de37 7dbe 4dca 88bd 2cc0 cc3e 60e4 ca3d
000000d0: 8f22 983e 82d4 8f3e d93d 203e c4c9 753e
000000e0: c85b 3e3f aaa6 913e bf9b 6a3d aedf 24be
000000f0: c6f7 0d3f e7ee e73d a18e fabd 8204 a13e
-0.0559823 0.382295 0.33755195 0.3032663 0.002573824 0.27854365 0.34275454 0.41546446
0.23739581 0.04302421 -0.1489614 0.050708897 0.29267377 0.38473648 -0.086493924 0.7091489
-0.1785112 0.3768049 0.37035716 0.34155634 0.39054373 -0.16305366 0.48479936 -0.15893489
0.06760866 -0.045897763 0.26228112 0.06353357 0.69791305 0.37843385 0.27479136 0.3164687
-0.14834988 0.4599449 0.3782429 0.30972624 -0.032510955 0.24902926 0.30198357 0.39901507
0.27965572 0.4027984 0.3356825 -0.14451136 0.26281378 0.30964774 -0.19239947 0.20476063
-0.24728343 -0.06679211 0.39990366 0.0990684 0.29713866 0.28091818 0.15648593 0.24002749
0.743588 0.28447467 0.057277437 -0.16100952 0.554562 0.11324864 -0.122342356 0.31448752

output.weight f4 [7, 64]
00000000: b3fd 3e3e c641 8bbe 67fb b2be 18bc 3bbe
00000010: abf5 063e eb30 c2be d1ae 51be 39cd 983d
00000020: 03df 483e ec57 803e 51df 393e 41ae b63d
00000030: f9c6 6abd e443 7dbf 6698 763e d2ee 92bf
00000040: 8002 cb3d e470 4fbe f2ba 18bf 623c 503e
00000050: 2b92 31bf aaf5 ae3d bc73 66bf 1351 463e
00000060: e1f2 80be ac68 813d 5e0b 083a 986e 853d
00000070: 9977 69bf 4cb4 96be b0b1 023e 6751 d7bd
00000080: 6954 263e 17a5 d8bd d648 07bf ea69 a13e
00000090: 1e17 a43c 4338 38be 1c0a 61bd f4dc 84be
000000a0: 2029 19be 8e90 05bf 4b69 8cbe 5812 b73e
000000b0: 65d7 e33d bd71 89be 00ad 713e d51e 113d
000000c0: 23ce c83d 8071 f83d cb11 e7be c774 0b3d
000000d0: afb4 ad3d 7c9e 4b3e a25f aa3d 24a8 90be
000000e0: e471 70bf eaea 8a3e 1ecf 183e c440 b53d
000000f0: 627b 63bf 0469 e5ba 2b0c 123e be81 c3bd
00000100: 490c d5be 1206 23bf 8634 7f3e aedf c3be
00000110: 5beb 0f3e e31e 613e bdd2 863e c372 1fbf
00000120: a180 423e 2d97 c5be 6739 333e d48d b33d
00000130: d8a2 ac3e 675a 8ebf 1aec 99bd 6577 91bf
00000140: 3d61 ca3d 8346 7bbf 9d36 3ebf 1205 2b3e
00000150: 5f62 5bbf 7fd1 e43d 68b6 d5be 0f70 9fbe
00000160: 2af4 433e 4f8e 973b 42d2 2b3d 0a3d 05bf
00000170: 463f 5ebf 7ad9 cc3d 61e9 06be cf9e 32bf
00000180: bcb9 d4be d8de 2f3e 392b 923e 118e 36be
00000190: 6497 bc3d 1f34 66bf 34bf 4c3e 64a2 3b3e
000001a0: 6032 71bf 08fe 15bf 7949 f5bd 36e9 23be
000001b0: 56b0 fabe fd4c a93e 06f2 cbbe 9ffb 1cbf
000001c0: a685 c03d 5fb7 eb3d 1dab 1abf 51f5 32bf
000001d0: e768 073e d70f 0c3e ddb6 733d d5e4 10bf
000001e0: f63a 81bf 9b3f c9be ca60 5fbd 0954 bf3d
000001f0: 5213 82bf ce84 613e 9e07 0d3e 0e34 a13e
00000200: 90ab 2d3e 82e3 3b3e ad1e 49be fc14 473e
00000210: 256e 113e 2e65 f73d e1f6 85be 2562 99be
00000220: 67b2 a8be 1ade db3d c61d 0cbd 2d69 91be
00000230: c988 65bf bc5d 90bf 7150 e5be 34ee 71bf
00000240: ed61 d23d 4e99 7b3e 9d11 8bbd 0658 01bf
00000250: 372f 5abf c484 da3d 2af8 15bf 7ea1 463e
00000260: 316f 68bc 5271 853d 10e2 c6be 03df 963d
00000270: 488f e5be 6d1b 313e deba 8dbe ee4d b73e
00000280: 24bc 303e ddd9 42bf f5f0 13bf 5a48 c8be
00000290: be15 0f3e c04d e03e 19b6 513e 12c2 5cbf
000002a0: d7a5 2c3e a480 86bf 88ed 553e b81b 00be
000002b0: 96ed b43d bea9 dabe 3bff 08be 15b4 143d
000002c0: 583e ea3d c6b2 fb3d ee09 783e c909 e03d
000002d0: 3c02 1ebf 8262 20be 85ec a7be 71c8 a33d
000002e0: 9d7a 97bf 2660 cfbe 92a7 233e 8155 ba3d
000002f0: a3ed 69bf f4f9 09bf 565c 05be 1b46 23bf
00000300: ba04 acbf d491 8fbf 8d4b 8a3e a979 713d
00000310: d339 3dbf fda1 a83e 38e3 63bf 8613 8cbf
00000320: d76d e9be 385e febf e118 5dbf 43b8 78bf
00000330: 819c 003f 6a22 3a3e 0370 6ebf 647d 983e
00000340: fef7 50bf 70ae 553e 875d 71bf 72cc b1bf
00000350: 78fc 60bf 6f38 8abf f1cc c9bf 21e1 77bf
00000360: 2769 31bf ee7d 093e f9a2 063f f88e 803e
00000370: e9a2 5c3e 7c00 4e3e 8ef4 6a3f 7814 b13d
00000380: ab1f d9be 0772 15bf 08b3 19bf d43c 05c0
00000390: e3fd 09bf 85c0 73be d1dd 91bf cdab 3f3e
000003a0: 488a 5a3e 0020 513e 7a39 80bd f6d3 83bf
000003b0: c6cb 813e 9ad8 153e d3c9 2cbf f8d9 b2bf
000003c0: 261a 49bf c053 73bf 5382 28bf 971d 483e
000003d0: cfc9 2ebf ea1c d73d 3982 a53e 26c0 343e
000003e0: a521 b93e 464d f3bf 1b07 13be 453d 4cbf
000003f0: 4b09 c93e e4b2 83bf b359 c6be 48d4 e03e
0.18651466 -0.2719862 -0.3495743 -0.18333471 0.13179652 -0.37927946 -0.20476843 0.07461018
0.19616322 0.2506708 0.18151595 0.08919955 -0.05731866 -0.9893172 0.24081573 -1.1479132
0.09912586 -0.20257908 -0.59660256 0.20335534 -0.6936366 0.085429505 -0.90020347 0.19366865
-0.25185302 0.06318793 0.0005189682 0.06515235 -0.91198117 -0.2943443 0.12763095 -0.10513573
0.16243137 -0.105783634 -0.52845514 0.3152612 0.020030554 -0.17990212 -0.05494128 -0.25949824
-0.14957094 -0.521737 -0.27424082 0.35756183 0.111250676 -0.26844588 0.2360115 0.035429794
0.098049425 0.121310234 -0.45130762 0.034046914 0.08481728 0.19884676 0.08319022 -0.2825328
-0.93923783 0.2713235 0.14922759 0.08850244 -0.8886014 -0.001750261 0.14262454 -0.09546231
-0.41610935 -0.6368114 0.2492238 -0.38256592 0.14054625 0.21984439 0.26332656 -0.6228449
0.1899438 -0.385919 0.17502366 0.08767286 0.3371799 -1.1121339 -0.07515736 -1.1364561
0.09881828 -0.9815447 -0.74302083 0.16701153 -0.8569698 0.11172771 -0.41740727 -0.3114018
0.1913611 0.004625119 0.041948564 -0.52046263 -0.868153 0.10002418 -0.13174964 -0.6977357
-0.41547954 0.17174852 0.285486 -0.17827632 0.09208563 -0.8992328 0.19994813 0.18323666
-0.9421749 -0.58590746 -0.119769044 -0.16006932 -0.4896266 0.3306655 -0.39833087 -0.61321443
0.094004914 0.11509585 -0.6041735 -0.69905573 0.13223611 0.13677917 0.059500564 -0.5659917
-1.0096118 -0.3930634 -0.054535665 0.093422 -1.0162146 0.22023317 0.13772437 0.31485027
0.16959977 0.18348506 -0.19640608 0.19441599 0.14202173 0.12079845 -0.26164916 -0.2995769
-0.3294861 0.10735722 -0.03420808 -0.28400555 -0.8966184 -1.1278605 -0.44787934 -0.94504094
0.10272584 0.245702 -0.06790469 -0.5052494 -0.85228294 0.10669854 -0.58581793 0.19397542
-0.014186666 0.06515755 -0.38844347 0.07366755 -0.44835877 0.17295618 -0.2768163 0.35801643
0.1725927 -0.76113683 -0.57789546 -0.391177 0.13973138 0.4380932 0.20479621 -0.8623363
0.16860138 -1.0508008 0.20891392 -0.12510574 0.088343784 -0.42707628 -0.13378613 0.036304552
0.114376724 0.12289958 0.24222538 0.10939366 -0.6172216 -0.15662578 -0.32797638 0.079972155
-1.1834294 -0.40503043 0.15981892 0.0909834 -0.9137823 -0.53897023 -0.13023505 -0.6377885
-1.3438942 -1.1216378 0.27010766 0.058953915 -0.7391636 0.32936087 -0.89018583 -1.0943458
-0.45591614 -1.9872503 -0.8636609 -0.9715616 0.50238806 0.1817719 -0.93139666 0.29783165
-0.81628406 0.20867324 -0.94283336 -1.3890517 -0.87885237 -1.0798472 -1.5765668 -0.96827894
-0.69301075 0.13426945 0.52592427 0.25109076 0.2154652 0.20117372 0.9177941 0.08646482
-0.42406973 -0.58377117 -0.60038805 -2.0818377 -0.53903025 -0.23803909 -1.1395818 0.1871788
0.21341813 0.20422363 -0.06260963 -1.029906 0.2535078 0.14633408 -0.6749546 -1.3972769
-0.78555524 -0.9504967 -0.6582386 0.19542538 -0.68276685 0.10503562 0.32325915 0.17651424
0.3615848 -1.9007957 -0.1435818 -0.7978099 0.39264902 -1.0288968 -0.3874031 0.43911958

output.bias f4 [7]
00000000: 9588 ecbe 724e 7d3e 6a22 00be b071 503f
00000010: c69d 63be d0ac 8cbe b2c6 f03e
-0.46197954 0.24736956 -0.12513128 0.81423473 -0.22228155 -0.27475595 0.47026592
