best_global_model.pth (torch, 58061 bytes, 6 tensors)

layer1.weight f4 [128, 38]
000000 0e 67 e1 bb b5 0d 7f bc 69 13 8a 3d fa 3d b3 bc
       -0.00687874 -0.015567233 0.067419834 -0.021880139
000010 24 e0 4b 3e 6e f2 cc 3d 3e 3f db 3c 28 54 82 bd
       0.19909722 0.10007177 0.026763555 -0.06363708
000020 2c 96 2f 3e 40 05 68 3d b4 be d9 be 60 4b 87 bc
       0.1714713 0.05664563 -0.42528307 -0.016515434
000030 9a 65 d8 3b 58 cc 2d bc aa 1c 19 3e d8 48 8e bc
       0.0066039087 -0.010607801 0.1495234 -0.017368719
000040 95 6d cf be ae 74 23 3d df d3 2f 3e 3b 2d 2b 3d
       -0.40513292 0.039906196 0.17170666 0.041791182
000050 2c 3f df 3c 7a bc 20 3d 35 d4 a0 bd b6 c0 e0 3b
       0.027251802 0.039242245 -0.07852975 0.0068589104
000060 fe 2e 4a 3e 11 e4 45 3d 82 bc 9a bd b2 8e 31 bd
       0.19744489 0.048313204 -0.07555486 -0.043348975
000070 5d f3 aa bc 1f 15 8a 3c b2 47 8f 3e a2 2e 58 bc
       -0.020867998 0.016855774 0.27984387 -0.013194712
000080 d9 bf 49 3e 38 bb 08 3d a2 3c 26 be f1 6f a7 3d
       0.1970209 0.03338167 -0.16234067 0.08175648
000090 92 36 01 bd 13 52 62 ba 58 12 9a 3c 93 bc 48 3d
       -0.031546183 -0.0008633446 0.018807575 0.049007963
0000a0 42 f5 a5 3d 00 ac 34 3d ff 10 0a bf 5d ee b1 be
       0.0810342 0.044109344 -0.53932184 -0.3475217
0000b0 f2 46 d0 bd f0 00 38 bd 07 a0 05 3e 75 02 4c 3d
       -0.10169782 -0.04492277 0.13049327 0.04980703
0000c0 bc d8 09 3f b7 c0 aa bb b2 55 b1 3c e6 34 73 bd
       0.53846335 -0.0052109617 0.021647308 -0.05937662
0000d0 30 5b cd 3b 6f 27 66 bc 64 1c 8a be 34 be 8d 3d
       0.006266974 -0.014047488 -0.26974785 0.06921044
0000e0 71 c0 1d 3d cc e4 62 bc 36 19 db 3d 0c f2 79 bd
       0.038513605 -0.013848495 0.10698168 -0.06102185
0000f0 9c d5 92 bc ff 1d 8f bc 0d ef 64 3e d3 34 be bc
       -0.017924123 -0.017470358 0.22356816 -0.023218548
000100 8b 89 13 3e 97 2c 29 bd 78 11 01 3e 40 0c 1c 3e
       0.14407937 -0.04130229 0.1260432 0.15239048
000110 1e b4 97 bd a7 0c 0e 3d 14 cf e0 3b ff ae 00 3d
       -0.074074015 0.034680035 0.006860623 0.03141689
000120 54 cc 8e be e8 34 0b 3d 26 c3 54 3c cb f7 99 3b
       -0.27890265 0.033986002 0.01298598 0.0046987287
000130 a1 31 12 be 32 0c 4e bd a1 eb b7 bd 44 89 4c 3b
       -0.14276744 -0.0503046 -0.089804895 0.0031209746
000140 7a fc 06 bf bd 3f e3 bd d4 18 b8 3d 74 5e 84 3c
       -0.52729 -0.110961415 0.089891106 0.01615832
000150 cc 0f 3c 3e a6 a3 eb 3c ad 29 56 3f 85 7f cc 3c
       0.18365401 0.028764557 0.8365734 0.02496315
000160 c3 91 4f 3e ef fd 29 bd 62 38 c6 3d 11 6b b4 bd
       0.20270447 -0.041501936 0.09678723 -0.08809484
000170 87 24 1e 3e 42 c9 9e 3c 1e e8 89 3d e8 6e f8 3c
       0.15443622 0.019383077 0.06733726 0.030326322
000180 e3 9b 9f 3c a8 6c 49 bc f4 5d 26 bd 82 4d e4 3d
       0.019483512 -0.012293972 -0.040616944 0.11147596
000190 93 2d 04 3e a7 8d a8 bc 9e 1f a2 bd 79 8c 00 3e
       0.1290801 -0.020575358 -0.07916187 0.12553586
0001a0 bc f0 fe 3e 0d ba 9c 3d 0e 5a a4 3d a1 58 35 3d
       0.4979304 0.07652674 0.08024989 0.044273976
0001b0 dd 4e 87 3d c8 16 97 3d 3b 1c 45 bd 8d be 60 3d
       0.06606839 0.07377392 -0.048122626 0.054869223
0001c0 58 f4 38 bb 54 d3 91 bc 53 bb f0 bc 8f 6c 82 3d
       -0.0028221812 -0.017800964 -0.029386198 0.06368362
0001d0 28 3f 7f 3d c6 67 9e bd e2 dc 86 be 78 73 2e be
       0.06231609 -0.07734637 -0.26340395 -0.17036235
0001e0 59 b3 8e bd 7e ac 4e bd 1e e5 4f 3d c2 75 22 3d
       -0.069678016 -0.05045747 0.050755613 0.039663084
0001f0 15 1b 0a 3f a7 a5 f4 bb 1e 5e 60 3e 24 8d 01 3d
       0.53947574 -0.0074660364 0.21910903 0.031628743
000200 80 a8 c4 bc fb 74 a1 3c 55 00 97 be 7f dd 33 bd
       -0.024006128 0.019709101 -0.2949244 -0.043912407
000210 fe 9d 9b 3b cd 04 a3 bd 8d 56 f7 bd 08 c1 2f 3d
       0.0047490587 -0.079599 -0.12077055 0.0429087
000220 4a ac 92 3e 28 ef c7 bd a2 a7 a3 3d fd 39 b8 bc
       0.2864707 -0.09762412 0.07990958 -0.022488588
000230 f2 e2 44 3e 67 7a eb bc ba df e9 be 74 87 58 bd
       0.19227198 -0.02874489 -0.45678502 -0.052863553
000240 ec 9a 5a bd 8f f2 88 bc b5 b8 4c be b4 8a b7 3c
       -0.0533704 -0.016717223 -0.19992335 0.022405006
000250 86 47 bd bd 8b 41 17 3c b4 2b 8b 3c ea e4 8a bb
       -0.09242158 0.009231935 0.016988613 -0.0042387145
000260 b6 29 37 bd 84 07 2f 3e e4 8a 23 3e e8 55 98 bd
       -0.044717513 0.1709271 0.15970951 -0.0743826
000270 ba d0 7e 3e 52 3e 82 bd 40 0c b2 bd 2c 7c 9f 3c
       0.2488431 -0.06359543 -0.08693743 0.01946839
000280 69 2c a5 3e 8f 9e 37 3c 47 c7 c6 3d 85 b6 1b be
       0.32260445 0.011207237 0.09705978 -0.15206344
000290 b2 e1 b4 3e 1c 29 01 3d 0a 3c f5 be 4d 62 0b 3d
       0.35328442 0.031533346 -0.4789737 0.034029294
0002a0 e5 53 47 3d 7c fa cf bd e0 34 e4 3c a2 39 b5 bc
       0.048663992 -0.10155198 0.027857244 -0.022122208
0002b0 e7 2a 2a 3e dc 4a 81 bb d1 5f 87 3c fe 17 7a bd
       0.16617928 -0.0039456915 0.016525181 -0.061058037
0002c0 0a 7c d6 bd 23 44 55 3c b1 ea bb 3c d6 7c a4 bc
       -0.10472877 0.013016733 0.022939058 -0.020079058
0002d0 3f d3 ae bc db 29 5b bd 6b 72 ff 3d d5 12 be bd
       -0.021340964 -0.053506713 0.12472995 -0.09280936
0002e0 8d 29 8d be 13 ab a2 3c 79 6d 06 be 87 44 a6 3c
       -0.27570763 0.019856965 -0.13127698 0.020296348
0002f0 24 cb 19 bc 5a e9 8d 3b 9d 8a 45 3d cc 7d 09 be
       -0.009386811 0.004330796 0.048227895 -0.13426894
000300 37 a5 cd bd a6 b2 fe 3d b6 87 04 be e2 43 22 3d
       -0.10041278 0.12436418 -0.12942395 0.03961552
000310 08 28 c6 3c 22 a3 3c 3e 2c 7c 8e bd b4 95 4d 3b
       0.02418901 0.18421605 -0.06957278 0.0031369748
000320 a6 88 57 be f4 4d df bb cf 21 08 3e be 66 ea bd
       -0.21048221 -0.0068147127 0.13294147 -0.11445378
000330 ba bf f2 3d e2 23 e6 bd 93 96 80 be 83 3e f5 3d
       0.11852975 -0.11237313 -0.2511488 0.11974814
000340 3c 32 8b 3d 91 84 66 3d 99 76 11 3b 29 c0 8b be
       0.06796691 0.05627877 0.0022195934 -0.27295044
000350 94 0b 80 3e dd 4f a4 3d 09 a0 29 be bc db c7 bd
       0.25008833 0.08023045 -0.16564955 -0.09758708
000360 c1 51 e9 bd ee 21 07 3e 27 e9 f9 bd db 5a b1 3e
       -0.113925464 0.13196537 -0.122026734 0.3463963
000370 fe 7d 42 be 73 b1 f1 3d d5 c3 40 3d b0 c6 97 bc
       -0.18993375 0.11801424 0.04706176 -0.018527359
000380 a9 06 05 bf f3 13 a4 be 62 cf ac 3c 91 2b 2c bd
       -0.5196329 -0.3204647 0.021094982 -0.042033736
000390 b5 16 76 be 6c a6 82 3d ad 27 15 be 24 1c 9c 3d
       -0.240321 0.06379399 -0.14565916 0.07622555
0003a0 2e e1 a6 bd c1 80 92 be 2e 70 32 3c e9 8a 4b 3d
       -0.08148418 -0.28613856 0.0108910035 0.049693022
0003b0 32 20 c5 3d 4d 98 ed bd 86 35 99 3e cd 12 1e be
       0.096252814 -0.11601315 0.29923648 -0.1543686
0003c0 10 ad a2 3c aa b9 ce 3d a8 62 68 3e 90 36 5a 3a
       0.019857913 0.10094006 0.22693884 0.00083241705
0003d0 01 e7 65 3e a4 4e ca bd 6f 3b a5 3c 59 52 20 bc
       0.22451402 -0.09878281 0.020169942 -0.009785258
0003e0 d3 0a 39 bd f4 77 94 3b 42 d7 30 3e ed 27 37 3e
       -0.04517634 0.004530901 0.17269614 0.17886324
0003f0 c9 f1 48 be e3 a1 34 bd 52 9f 9b be 8f 24 fb 3d
       -0.19623484 -0.0440997 -0.3039499 0.122628324

layer1.bias f4 [128]
000000 3b a8 0c bf 5b 4c 5e bf b7 88 29 bf 53 1b 8f be
       -0.549442 -0.8683526 -0.66224235 -0.27950534
000010 48 7d 36 3c 9d 94 bc be aa 31 22 bf cd 38 48 bf
       0.011138268 -0.36832133 -0.6335703 -0.7821167
000020 be c6 35 bf 62 be 09 be 82 5a 30 bf 1b 96 69 be
       -0.7100638 -0.13451532 -0.68888104 -0.22811167
000030 db 4a 22 bf e2 84 17 bf 4a 2c 2d bf 25 9a 13 bf
       -0.6339547 -0.5918714 -0.67645705 -0.5765708
000040 e9 54 53 bf ef 1d 19 bf 9f 43 89 be 4a 84 30 bf
       -0.8255144 -0.598113 -0.26809403 -0.6895186
000050 79 4d 21 be e1 82 3e bf 44 5d 0e be 9c b7 24 bf
       -0.1575221 -0.74418455 -0.13902766 -0.64342666
000060 99 9d 10 bf 8c d1 0d bf 16 51 3a bf cc b4 01 bf
       -0.56490475 -0.5539787 -0.7277998 -0.506665
000070 18 ca 3f bf 58 59 13 bf 5a 9a 43 bf 18 80 3f bf
       -0.74917746 -0.575582 -0.76407397 -0.7480483
000080 40 89 50 bf 64 0d 94 be 31 cf 8b be 41 ed 15 bf
       -0.81459427 -0.28916466 -0.27306512 -0.58565146
000090 d1 48 0e bf a8 9a 24 bf ce d2 11 bf c2 bc 0f bf
       -0.5557986 -0.64298487 -0.5696229 -0.56147397
0000a0 85 70 ff be cc 7d 25 bf c8 70 64 be 8c ba 41 bf
       -0.49890533 -0.64645076 -0.22308648 -0.7567527
0000b0 9c 11 2b bf c9 4a 37 be ee 78 89 be 1e ec 26 be
       -0.66823745 -0.17899622 -0.26850075 -0.16301009
0000c0 db d7 e6 be 04 fc 18 be 57 a8 0b bf ac 35 0f be
       -0.4508656 -0.14939886 -0.5455374 -0.13985318
0000d0 c3 ab 6a bd aa 0f 9e be 4c 60 3a bf d1 8e 4b bf
       -0.05729271 -0.30871326 -0.7280319 -0.79514796
0000e0 1c 6a db be 54 f5 ea be c9 af 29 bf 6a d6 49 bf
       -0.42854393 -0.45890296 -0.6628385 -0.78842795
0000f0 32 6d 27 bf 28 79 18 bf ee d4 3b bf 43 e8 3a be
       -0.65400994 -0.5955987 -0.7337178 -0.18252663
000100 5a 9f 59 be 1c 57 ee be 97 71 cb be 89 f0 2e bf
       -0.21252194 -0.46550834 -0.397351 -0.6833578
000110 2b 93 1c bf d6 d1 ca bd ae 4b 36 bf ed 07 3e bf
       -0.6116206 -0.09903304 -0.7120923 -0.74230844
000120 9d 3a 39 bf 38 b4 0e bf 6a d2 a8 be 28 38 e6 be
       -0.7235506 -0.5574374 -0.32973033 -0.4496472
000130 ef 73 35 bf 88 aa 39 be 86 12 27 bf 8f c3 10 bf
       -0.70880026 -0.18131459 -0.6526264 -0.565484
000140 b9 48 2a bf 89 ff 78 be ad 2d fb be 36 74 9f be
       -0.66517216 -0.24316229 -0.49058285 -0.3114335
000150 74 45 85 be bf 25 3e bf a9 a1 9f be 45 06 4e bf
       -0.2602955 -0.74276346 -0.31178024 -0.80478317
000160 f7 26 d2 be 2b 68 d7 be 36 15 06 bf db 17 43 bf
       -0.41045353 -0.4207166 -0.52376115 -0.76208276
000170 f6 b3 87 be df 7a 2a bf a3 b8 35 bf 3b 01 42 be
       -0.26504487 -0.66593736 -0.7098486 -0.18945782
000180 34 86 47 be 8f 48 af be 69 ef 10 bf 54 a0 33 bf
       -0.19484788 -0.34235045 -0.5661531 -0.70166516
000190 3f ee e6 bd f0 3b 05 bf 2c 51 45 be ee 70 d1 be
       -0.112759106 -0.5204458 -0.19269246 -0.4090647
0001a0 28 08 f2 be fb c4 03 bf 2c e1 81 be ad 2b 0a bf
       -0.47271848 -0.51472443 -0.25367105 -0.53972894
0001b0 d8 20 07 bf 72 37 ff be 6b c5 56 be 7f 17 2e bf
       -0.5278449 -0.4984699 -0.20973746 -0.680046
0001c0 c5 1a 4d bf 53 8d 30 bf 91 6f 01 bf c4 59 c1 be
       -0.8011897 -0.68965644 -0.5056086 -0.37763798
0001d0 31 fd d7 be 52 16 a0 be a6 3b 3a be 4d db 88 be
       -0.42185357 -0.3126703 -0.18186817 -0.26729813
0001e0 c9 2d f1 be e2 4a 2e bf f4 4c e1 be b2 fd 32 bf
       -0.47105244 -0.6808301 -0.44004023 -0.6991836
0001f0 d2 76 0b bf 2b ae 54 bf c8 95 16 bf 7e 23 e7 bd
       -0.5447818 -0.8307826 -0.588223 -0.112860665

layer2.weight f4 [64, 128]
000000 79 1e a6 bb 12 07 b0 be 87 b6 69 be 18 2d 6e bd
       -0.0050695506 -0.34380394 -0.22823535 -0.058148474
000010 33 1c 19 be 3e fd 03 3c 0f ed 56 bd e0 be f1 3d
       -0.14952163 0.008055983 -0.05247217 0.11803985
000020 ea 02 94 3e dc 1f 5e ba a5 00 0a be b2 17 26 bc
       0.28908473 -0.00084733753 -0.13476808 -0.010137485
000030 97 6d 80 3e 1c 4d 2a 3e a9 50 42 3e f6 0a a0 be
       0.2508361 0.16630977 0.18976082 -0.31258363
000040 6d 00 b7 3e 93 07 b6 3b cf 6b bb 3b 62 47 9a 3e
       0.35742512 0.005555102 0.005719639 0.30132586
000050 ba 09 ad bd 6b 45 df 3e d5 77 01 be 45 ec ac be
       -0.08449121 0.4360765 -0.12643369 -0.3377401
000060 f3 ed 0f 3c de e0 ea bd 48 ad 9b 3c 23 70 28 bd
       0.008784759 -0.11468671 0.019003525 -0.041122567
000070 a4 76 97 3e e5 68 de 3d dc d3 bc 3d a3 d6 92 3d
       0.29582703 0.10859851 0.092200965 0.07169845
000080 86 17 84 3e e8 5c c9 bd 28 0e c4 3d f6 1c 04 bd
       0.25799197 -0.098321736 0.095730126 -0.03225418
000090 90 9e 79 be a0 61 2b bd 6b 06 8a bb f3 d8 ba 3d
       -0.24376893 -0.04184115 -0.004212191 0.09123411
0000a0 38 20 89 ba 54 38 2f 3e 04 6f 95 be 80 a2 bf bd
       -0.0010461872 0.17111331 -0.2918626 -0.09357166
0000b0 2f c4 85 be 54 bc a7 bc fa 1b 09 be 56 c6 7f 3d
       -0.2612624 -0.020475544 -0.13389578 0.062445007
0000c0 75 d0 89 3d d1 23 26 be d4 cb 98 3c 97 7b 73 be
       0.06729213 -0.162246 0.01865188 -0.23777615
0000d0 5d 83 4c bd b1 f1 7e be c0 2a 17 be e2 b4 d3 bc
       -0.049929965 -0.24896885 -0.14762402 -0.025843088
0000e0 ec 61 e4 bc 6e 2a a6 3c 7c 4f 28 bb 0c 72 ad 3e
       -0.027878724 0.020283904 -0.0025682142 0.33876073
0000f0 8f 70 0e be 9f a3 65 3e af 76 32 3e 31 56 37 3d
       -0.13910125 0.22425698 0.17428087 0.044759933
000100 cf 60 b4 bd 94 30 0d 3e 3e 07 94 3d 1c 31 ab bd
       -0.08807527 0.13788062 0.07227944 -0.08358976
000110 4e 07 27 bd 1c 75 6f be de 1b a4 3e fe 69 e8 3d
       -0.04077845 -0.23384517 0.3205251 0.113483414
000120 d2 df d6 3c 80 03 c6 b8 33 4c 1a bd bf e4 23 3c
       0.026229773 -9.442028e-05 -0.037670325 0.010003268
000130 84 7b d1 bd a7 88 cb 3d 86 ae 8e 3e 3d 34 fb 3c
       -0.10228637 0.09938174 0.27867526 0.030664558
000140 d8 89 93 3e 0d b6 a1 be cc d2 c0 bd bd f6 31 be
       0.28816104 -0.31584206 -0.09415206 -0.1737928
000150 18 05 6e bc 9b 07 59 3d 19 bc 0b 3d 09 f6 c0 3d
       -0.014527582 0.05298577 0.03411493 0.094219275
000160 8a 29 bb 3d d8 f4 ba bc c5 29 c9 3d 6e a3 8f 3e
       0.09138782 -0.022821829 0.0982242 0.28054374
000170 f0 e9 40 bd 9f 2c 96 3e 0e bc f0 3e ce 0e 29 be
       -0.0470981 0.29330918 0.47018474 -0.16509554
000180 51 46 ba bc 90 4f f7 3a 38 35 3c be fa 80 48 3d
       -0.022738608 0.0018868316 -0.18379676 0.048951127
000190 32 85 d4 3c c5 d6 32 3e c7 dd de 3c b7 6d a4 3d
       0.025942419 0.1746474 0.027205361 0.08028739
0001a0 2c ad 2e 3e c3 95 3d 3e 59 58 23 be 8a 8e 70 be
       0.17058247 0.18514161 -0.1595167 -0.23491874
0001b0 5b 6f a5 3e 74 38 b0 bc 9d 11 c0 bc ef 69 ec bc
       0.3231152 -0.021511294 -0.023445899 -0.028859107
0001c0 e0 0a 1f bd 8c fa b8 bd 28 4c 2f 39 5e 7a c8 bd
       -0.03882873 -0.09032163 0.00016717671 -0.09788965
0001d0 32 4e 04 be 7e cb 2a bd a5 c4 aa bd 9c 46 62 be
       -0.12920454 -0.04169797 -0.08338288 -0.22097248
0001e0 2f 0d cf bd b7 6e 21 3e 98 02 48 3d 92 53 89 be
       -0.101099364 0.1576489 0.0488306 -0.26821572
0001f0 7e aa 84 3e 4d d1 44 3e f5 a0 4c be 4f d5 48 bd
       0.25911325 0.19220467 -0.19983275 -0.049031552
000200 2b 10 8a 3c 90 f7 cb be e0 a8 0a be 40 8d 04 be
       0.016853413 -0.39837313 -0.13540983 -0.12944508
000210 b0 34 a9 3c 64 80 94 be 86 61 08 be a9 aa 60 be
       0.020655006 -0.29004204 -0.13318452 -0.21940102
000220 fb fd 36 3e 68 b3 0b 3e 40 e2 b7 be 68 36 8c 3d
       0.17870323 0.13642657 -0.35914803 0.06846315
000230 1a 9c 03 bc 66 69 d9 3d 97 ab 5b bc e4 b9 5f 3b
       -0.008032823 0.10615806 -0.013407609 0.00341379
000240 4b f3 36 be 54 03 b7 bd 9e 9f 0d 3c 9d a9 77 bd
       -0.17866246 -0.08936182 0.008644013 -0.06046449
000250 1d 81 58 3e 9a 8a cc 3d c9 a8 20 3e a5 1a 7c be
       0.21143003 0.09987374 0.15689386 -0.24619539
000260 9e e2 89 bc 5f 1c b4 3c 3c 41 87 be 12 77 6b be
       -0.016831692 0.021986185 -0.26416957 -0.2299464
000270 53 0c 53 3d dc 4f 5b 3d 5d b9 5b be 8a 35 76 be
       0.051525425 0.053542957 -0.21457429 -0.24043861
000280 93 26 79 be 98 e3 46 bf 6c c7 98 3d 88 39 92 bc
       -0.24331121 -0.7769103 0.07459912 -0.017849699
000290 66 3a 80 bc 9b 1a 35 3d 24 b6 89 bd ea 58 88 3d
       -0.015652847 0.044214826 -0.06724194 0.06657584
0002a0 5d db 8d be e3 e3 fe 3d 06 26 d9 3b 8e 05 a8 be
       -0.27706423 0.1244581 0.006626847 -0.32816738
0002b0 63 55 f1 bc 87 11 aa 3d 07 f9 11 3c 70 e6 83 bc
       -0.02945966 0.08304124 0.00890947 -0.016101092
0002c0 c7 2e da 3b 93 dc 3e 3e 0f 4e b5 bd 4e b2 c3 3d
       0.0066584083 0.1863883 -0.08852779 0.09555493
0002d0 b8 d1 ca be f6 78 43 3d 8f 7c a9 be a4 75 76 be
       -0.39613128 0.04772278 -0.33102843 -0.24068314
0002e0 dd ae c3 bd 3d cd ec bc 4f cd 8d be f2 0a d2 bc
       -0.09554837 -0.028906459 -0.276957 -0.025639985
0002f0 f1 ec 21 bd ff 8f 85 bd b7 b1 fd bd c8 e5 fb be
       -0.039532606 -0.06521606 -0.12387412 -0.49198747
000300 01 06 9b 3d ea 80 b2 bc 7a 47 d4 3c a3 6a fd bd
       0.075695045 -0.021789987 0.025912989 -0.12373855
000310 09 d7 70 bd 6d 07 7b 3d 28 53 14 3e f8 22 60 be
       -0.058798824 0.06128638 0.14484847 -0.2188834
000320 b8 9c 16 bd d3 6f 92 3c 12 74 d8 be 44 4e 02 bd
       -0.036770552 0.017875588 -0.42276055 -0.03181292
000330 bc 34 1b bb b0 96 ff 3d 74 88 23 3e 2a 14 8c bd
       -0.0023682555 0.12479913 0.15970021 -0.068397835
000340 7b d8 3f be 6d 7a 9a 3c 49 27 e6 bd a9 76 89 bd
       -0.18734924 0.018857205 -0.11237962 -0.06712086
000350 43 38 9e bd 07 ae 2a 3e 24 22 a7 be 9b 7f 21 bd
       -0.07725575 0.16667949 -0.32643235 -0.039428335
000360 17 ef 15 bc 25 68 51 bd 9e b8 55 3e 40 59 1c bc
       -0.009151242 -0.05112471 0.20871207 -0.009542763
000370 af b4 9e 3d 33 a1 e4 bd 54 39 9a 3d ea 46 2d 3e
       0.077493064 -0.11163559 0.07530466 0.16921583
000380 a3 8f 89 3c 68 16 aa bd b8 c0 ce be c2 7d 16 3d
       0.016792124 -0.08305055 -0.40381408 0.036741026
000390 f8 fc 95 bd b3 5f f9 bd 28 6f c3 3d 16 86 4f 3d
       -0.073236406 -0.12176456 0.09542686 0.050664984
0003a0 a8 9f 7d bd 61 8e 8e bc 75 12 98 3c ec f3 4b 3c
       -0.06191984 -0.017401876 0.018563488 0.012448292
0003b0 c2 a7 bb 3d 07 e0 f9 bd eb ca 58 bf cb 6a b6 be
       0.09162857 -0.12200933 -0.8468463 -0.35628352
0003c0 20 5e 47 be ad b5 3d be c6 7c 31 bd fd 40 a9 be
       -0.194695 -0.18526335 -0.043331884 -0.33057395
0003d0 9e 16 37 3d 36 9b 2d bf 99 23 52 3e ec b2 86 bd
       0.044699304 -0.6781496 0.20521392 -0.065770954
0003e0 63 da 6f 3d 2f 1e dd 3d 7e ef 7f 3b 6d 78 97 be
       0.05855788 0.10796773 0.003905266 -0.29584065
0003f0 a2 38 b9 3c 66 48 15 be be a5 73 3c 36 8b e4 bb
       0.022610012 -0.14578399 0.014871059 -0.006974603

layer2.bias f4 [64]
000000 54 bb 5f 3e 65 4f c0 3e 71 0c 85 3e 14 5f a4 3e
       0.21848804 0.37560573 0.25986055 0.3210379
000010 c8 c5 0e 3f 80 0a 33 3d 72 97 65 3e 88 f4 bd 3e
       0.5577054 0.043711185 0.22421053 0.37100625
000020 d0 7f 04 3e 85 22 1e 3f 22 ab e5 bd 7a a5 ba 3e
       0.12939382 0.6177142 -0.112142816 0.36454374
000030 47 85 9d 3e fc 39 86 be 9a 22 50 3e b5 24 35 bd
       0.30765745 -0.26216114 0.203257 -0.04422446
000040 af c8 9a 3e 3d 2f 88 3e fd 5c 87 3e c5 56 a8 3e
       0.30231234 0.2659854 0.26438132 0.328787
000050 23 11 89 3e 6d 1a 3e 3e 4a 59 b6 3e 7d b5 9d 3e
       0.26770887 0.18564768 0.35614997 0.30802527
000060 cc 9f 57 3e fd c9 66 3b 4c 69 c6 3e bc 6b 3d be
       0.21057051 0.003521561 0.3875221 -0.18498129
000070 13 d7 60 bc 81 3a a2 3e 97 53 3f 3e 24 81 d7 3e
       -0.013723153 0.3168526 0.1868423 0.42090714
000080 cd 5f 8c 3e ac 90 e8 bd c1 60 96 3e f1 0b d9 3e
       0.2741684 -0.11355719 0.29370692 0.42391923
000090 b5 b3 0e 3f 24 76 93 3e 86 03 97 3e cc e3 ad 3e
       0.5574296 0.28801072 0.29494876 0.33962858
0000a0 58 f3 a4 3e 1c 76 22 be d5 38 c7 bd 8f 05 28 be
       0.32216907 -0.15865368 -0.09727637 -0.1640837
0000b0 91 28 86 3e 5e d5 b2 bc 58 dd 02 be 67 52 b8 3e
       0.26202825 -0.021830257 -0.12779748 0.36000368
0000c0 4a d5 29 bd f4 c1 70 3d 5a 7d d5 3d be 63 28 bd
       -0.041463174 0.058778718 0.104242995 -0.041110747
0000d0 d6 d3 27 3e fa dc 58 bd d1 d4 1f 3f a2 ca 73 3c
       0.16389403 -0.052945115 0.6243411 0.014879854
0000e0 e2 26 b5 3e 23 d8 7e 3e 37 71 86 3e 95 56 13 3e
       0.35381228 0.24887137 0.2625825 0.14388497
0000f0 59 45 7e 3e 21 b0 d5 3d c9 00 69 bd fb 5f 81 3e
       0.24831142 0.104339845 -0.056885514 0.2526854

output.weight f4 [7, 64]
000000 40 0d e3 3d db c0 7b bd 97 e8 0a 3e 10 c2 d8 bf
       0.110865116 -0.06146322 0.13565288 -1.6934223
000010 04 ee dc bf 3d 0e 99 3d 55 67 c8 bf 1e 41 f5 be
       -1.7260137 0.07473419 -1.5656534 -0.47901243
000020 8d d7 88 3d a9 9d 32 bf a5 00 0d 3e 35 98 ba be
       0.06681738 -0.6977182 0.13769777 -0.3644425
000030 38 5b 77 bf 7d ed 1b 3e 85 d4 8b be c0 38 d1 bc
       -0.96623564 0.15227313 -0.27310577 -0.025539756
000040 b2 32 2d 3e de d0 8e be 7d 12 ac bd 6f 48 d8 be
       0.1691387 -0.27893728 -0.08401964 -0.42242762
000050 eb 39 0b be d8 bb d1 3d c0 c1 bd be e4 26 ec be
       -0.13596313 0.102409065 -0.37061882 -0.4612342
000060 1e ca 6d bd fb 6b ec 3d 94 d7 df bd 27 0e 17 3e
       -0.058054082 0.11544033 -0.1092979 0.14751492
000070 4f f6 0a 3e 86 96 f5 be f5 31 05 3e bb 99 3f be
       0.13570522 -0.47966403 0.13007338 -0.18710987
000080 a3 42 93 3e 75 f5 f9 3d aa a8 2e 3e b7 47 a8 3d
       0.28761777 0.1220502 0.17056528 0.082168035
000090 96 f3 64 be 9a cc 4c 3d ce 85 ce be 12 ba 4f bf
       -0.22358546 0.04999981 -0.4033646 -0.81143296
0000a0 d3 7e 41 bf e6 17 00 3e 54 3c 8b 3d ae aa f3 3d
       -0.75584143 0.12509117 0.06798616 0.11897789
0000b0 a1 bb fc be 29 2b 8d 3d 47 c0 49 3e 09 30 55 3e
       -0.493619 0.06892998 0.19702254 0.20819105
0000c0 22 03 39 3e a1 1a a3 3d 0c 19 02 3e 71 ad 36 3e
       0.18067601 0.079640634 0.12704867 0.178396
0000d0 bd d5 38 3e df 36 32 3d f7 17 f9 bf 92 06 a3 3d
       0.18050285 0.04350936 -1.9460438 0.079602376
0000e0 f1 bf 19 c0 e8 d5 a7 be 71 18 dd be d0 0e d9 3d
       -2.4023402 -0.32780385 -0.4318271 0.105985284
0000f0 a4 d9 80 3e 47 4b 10 3e c3 bb 27 3e 30 41 a8 be
       0.25166047 0.14091216 0.16380219 -0.32862234
000100 7c 5e f2 3d 9e ba d9 3d ff 2f 1f 3e e0 e3 d4 bf
       0.11834428 0.106312975 0.15545653 -1.6632042
000110 a3 e1 f8 bf 6e e3 b6 3d fa ee fa bf 34 06 95 bf
       -1.9443859 0.089300975 -1.960418 -1.1642518
000120 c3 36 2e 3d 9a 20 a6 bc 8b 84 0a 3e 41 5b 41 bf
       0.042532694 -0.020279218 0.13527124 -0.7552987
000130 2d 6f bf bf 05 5e 10 be 40 c0 ca 3d 2e 54 0a 3e
       -1.4955803 -0.14098366 0.0989995 0.13508675
000140 65 96 33 3e 41 0a aa bf 2d a4 0c 3e 71 56 69 3e
       0.1753784 -1.3284379 0.13734503 0.22786881
000150 ab 91 8a bf 9a cd 23 bf dc 0c 2f bf 91 c6 93 bf
       -1.0825704 -0.639856 -0.68378997 -1.1544973
000160 7a 85 36 3e 47 52 ff 3d bb 97 81 bf f2 e9 82 be
       0.17824355 0.12466865 -1.012443 -0.2556911
000170 ae 59 1d 3e cf 5a d5 3b d7 cb 81 bf 5c 70 a7 bf
       0.15366241 0.0065110694 -1.0140332 -1.3081164
000180 da a5 bb be a2 84 40 be 27 4c 14 bf b0 08 2c bc
       -0.36649972 -0.18800595 -0.579287 -0.010500118
000190 60 e2 06 be 47 90 5e be e9 b5 88 3d 2c e8 f7 3c
       -0.13172293 -0.21734725 0.066753216 0.030262075
0001a0 82 57 aa bb 1f 25 ab be 32 88 11 bf 7f ed 97 bd
       -0.00519842 -0.3342676 -0.5684844 -0.07418346
0001b0 f1 73 f1 bd 0c c7 34 bf 62 0e 33 bf c6 ed 40 3e
       -0.11789692 -0.7061622 -0.6994382 0.18840703
0001c0 d5 c1 24 bd 3e d3 a2 3d e8 33 e0 be 7f ca 2b be
       -0.040223915 0.079504475 -0.437896 -0.16776465
0001d0 a3 ca 32 3e 28 26 48 3d 16 a2 f8 bf b7 4a bc 3d
       0.17460112 0.048864514 -1.9424465 0.09193938
0001e0 54 22 d3 bf 82 04 37 3e 1b c7 bf bf 68 c5 20 3e
       -1.6494851 0.17872813 -1.4982637 0.15700305
0001f0 4a b2 99 be 38 c5 13 3e 84 4c 3f be 0a e3 55 bc
       -0.30018836 0.14430702 -0.18681532 -0.013054619
000200 b8 5f b4 be ab 8e 1f bf 7a 88 a8 be f3 f7 8f bf
       -0.35229278 -0.6232707 -0.32916623 -1.1247543
000210 1c 57 d9 bf d6 89 b9 3d 66 a4 9d bf 4c d7 54 3e
       -1.6979709 0.09059493 -1.2315795 0.20785254
000220 c3 62 b7 be 10 fc a3 bf 14 fe 11 3e ac 2d 73 3e
       -0.35817537 -1.2811298 0.1425708 0.23747891
000230 be 08 2f be ba 52 d1 3d 2a 13 08 3e 7f 07 88 3d
       -0.17093179 0.10220857 0.1328856 0.06642055
000240 b4 f6 f4 be 1e 58 b8 3d ca 4c a0 bf 14 9e 0b bd
       -0.4784447 0.09001182 -1.2523434 -0.034086302
000250 74 7c 81 3e 8b 7a ed 3d c8 e1 cb 3e 4a c8 76 bd
       0.25290263 0.11595639 0.39820695 -0.060249604
000260 30 2f 57 3d d3 48 e5 3d 0f 42 4c bf 51 35 21 3e
       0.052535236 0.11195531 -0.797883 0.15742995
000270 2e 70 fd 3d 16 28 4d bf 2e 2c 24 3e 78 3a 55 bf
       0.12374912 -0.8013929 0.16032478 -0.8329234
000280 e1 0e d4 be ab c1 f5 bd 99 26 0a bd ad 07 2c bf
       -0.41417602 -0.1199983 -0.033728216 -0.6719921
000290 ab 7c 94 bf 61 cc 29 bf 9c 0b 56 3e 75 97 9d be
       -1.1600546 -0.6632748 0.20902866 -0.30779615
0002a0 93 9d 9c bf 55 52 04 3e 38 f8 6e 3d 56 1a fb 3d
       -1.2235588 0.12922032 0.05834219 0.122608826
0002b0 5d 0e b4 bd 8f 31 ec 3d df 86 aa 3c f4 b2 ad be
       -0.08791802 0.1153289 0.020816265 -0.33925593
0002c0 91 a0 7d be b6 30 90 3d 10 d5 f9 3d 47 c8 9b be
       -0.24768282 0.07040541 0.121988416 -0.30426237
0002d0 df aa 49 be ee 08 4c 3d 12 65 c2 bf a2 6a d1 3d
       -0.19694088 0.049813204 -1.5187094 0.10225417
0002e0 21 88 87 bf ac 5e 79 bf a0 82 a9 bc 45 28 2e bf
       -1.0588418 -0.9741008 -0.02069217 -0.68030196
0002f0 4d ef c4 be 7c 63 12 3e 00 78 69 be 3c ca 3f 3e
       -0.38463822 0.14295763 -0.22799683 0.1872949
000300 dd 68 87 3e 42 1a 08 be 4c 9a 61 3f 65 45 85 bf
       0.26447192 -0.13291267 0.88126063 -1.0411803
000310 28 8d 99 3e ca 09 9f 3d 7b 27 34 3e ae 8f 61 bf
       0.29990506 0.07765539 0.17593186 -0.8810986
000320 00 e5 41 39 64 4b 75 3e 4a b9 96 bf f0 92 e2 3c
       0.00018491223 0.2395454 -1.1775296 0.027657956
000330 b2 69 02 40 97 8f d3 bf cc f7 05 3e 6e 08 b7 bf
       2.0377011 -1.6528195 0.13082808 -1.4299448
000340 4e ba cc 3d b9 32 3f 3e 7e eb 39 3e 02 dd a3 3c
       0.09996472 0.18671693 0.1815624 0.020002846
000350 49 6a 8c 3c 4a d4 87 bf c9 1f 84 3f ed 61 6a 3e
       0.017140524 -1.061166 1.03222 0.22888918
000360 c5 96 bb bd ed 71 85 bf d2 b7 1d c0 22 ef 95 bf
       -0.091596164 -1.0425392 -2.4643445 -1.1713603
000370 43 f0 88 bf 76 2f 6d 3e 17 d5 ab bf a7 6e 53 c0
       -1.0698322 0.23162636 -1.3424405 -3.3036287
000380 a4 55 89 c0 63 44 4e bf df 86 6e c0 08 0d 3b c0
       -4.291704 -0.805731 -3.7269819 -2.9226704
000390 03 73 48 3d 62 1f fc 3f d9 34 93 bf 9e 5f 8a 3f
       0.04893781 1.9697077 -1.1500503 1.081043
0003a0 85 5a a6 bf ff b3 6f be 90 b3 02 bf 22 60 b0 bf
       -1.2996374 -0.23408507 -0.5105524 -1.3779337
0003b0 4c 44 49 3e c6 bd a4 be 2a a8 04 c0 0a 14 02 c0
       0.1965496 -0.32176036 -2.072764 -2.032473
0003c0 95 08 12 c0 0d 46 e1 bf 1c c5 24 c0 ca 90 4e c0
       -2.2817738 -1.7599503 -2.5745306 -3.2275872
0003d0 f1 12 86 bf fa 55 6e bf a6 1b 85 3e 63 4a 38 bf
       -1.047453 -0.9309994 0.25997657 -0.71988505
0003e0 f3 9d 01 3f 62 1d 44 3e f9 e9 fc 3d 65 1c b1 bb
       0.50631636 0.19151834 0.12349314 -0.005404996
0003f0 47 70 93 c0 63 1d a1 bf ba 2c 24 c0 fa 30 46 bf
       -4.6074557 -1.2587093 -2.56523 -0.7741848

output.bias f4 [7]
000000 11 ff 34 bf 1b 15 86 3e d8 2c 7c bd f3 23 38 3f
       -0.707017 0.26187977 -0.061566204 0.71929854
000010 53 fd a8 be 1f 70 41 be 46 51 4c 3e
       -0.3300577 -0.18890427 0.19952878
